…
br><span class="line">29</span><br><span class="line">30</span><br><span class="line">31</span><br><span class="line">32</span><br><span class="line">33</span><br><span class="line">34</span><br><span class="line">35</span><br><span class="line">36</span><br><span class="line">37</span><br><span class="line">38</span><br><span class="line">39</span><br></pre></td><td class="code"><pre><span class="line">                   from  n    params  module                                       arguments                     </span><br><span class="line">  0                  -1  1       464  ultralytics.nn.modules.conv.Conv             [3, 16, 3, 2]                 </span><br><span class="line">  1                  -1  1      4672  ultralytics.nn.modules.conv.Conv             [16, 32, 3, 2]                </span><br><span class="line">  2                  -1  1      7360  ultralytics.nn.modules.block.C2f             [32, 32, 1, True]             </span><br><span class="line">  3                  -1  1     18560  ultralytics.nn.modules.conv.Conv             [32, 64, 3, 2]                </span><br><span class="line">  4                  -1  2     49664  ultralytics.nn.modules.block.C2f             [64, 64, 2, True]             </span><br><span class="line">  5                  -1  1     73984  ultralytics.nn.modules.conv.Conv             [64, 128, 3, 2]               </span><br><span class="line">  6                  -1  2    197632  ultralytics.nn.modules.block.C2f             [128, 128, 2, True]           </span><br><span class="line">  7                  -1  1    295424  ultralytics.nn.modules.conv.Conv             [128, 256, 3, 2]              </span><br><span class="line">  8                  -1  1    460288  ultralytics.nn.modules.block.C2f             [256, 256, 1, True]           </span><br><span class="line">  9                  -1  1    164608  ultralytics.nn.modules.block.SPPF            [256, 256, 5]                 </span><br><span class="line"> 10                  -1  1         0  torch.nn.modules.upsampling.Upsample         [None, 2, 'nearest']          </span><br><span class="line"> 11             [-1, 6]  1         0  ultralytics.nn.modules.conv.Concat           [1]                           </span><br><span class="line"> 12                  -1  1    148224  ultralytics.nn.modules.block.C2f             [384, 128, 1]                 </span><br><span class="line"> 13                  -1  1         0  torch.nn.modules.upsampling.Upsample         [None, 2, 'nearest']          </span><br><span class="line"> 14             [-1, 4]  1         0  ultralytics.nn.modules.conv.Concat           [1]                           </span><br><span class="line"> 15                  -1  1     37248  ultralytics.nn.modules.block.C2f             [192, 64, 1]                  </span><br><span class="line"> 16                  -1  1     36992  ultralytics.nn.modules.conv.Conv             [64, 64, 3, 2]                </span><br><span class="line"> 17            [-1, 12]  1         0  ultralytics.nn.modules.conv.Concat           [1]                           </span><br><span class="line"> 18                  -1  1    123648  ultralytics.nn.modules.block.C2f             [192, 128, 1]                 </span><br><span class="line"> 19                  -1  1    147712  ultralytics.nn.modules.conv.Conv             [128, 128, 3, 2]              </span><br><span class="line"> 20             [-1, 9]  1         0  ultralytics.nn.modules.conv.Concat           [1]                           </span><br><span class="line"> 21                  -1  1    493056  ultralytics.nn.modules.block.C2f             [384, 256, 1]                 </span><br><span class="line"> 22        [15, 18, 21]  1    751702  ultralytics.nn.modules.head.Detect           [2, [64, 128, 256]]           </span><br><span class="line">Model summary: 225 layers, 3011238 parameters, 3011222 gradients, 8.2 GFLOPs</span><br><span class="line"></span><br><span class="line">Transferred 319/355 items from pretrained weights</span><br><span class="line">DDP: debug command /root/anaconda3/envs/py39_yolov8/bin/python -m torch.distributed.run --nproc_per_node 2 --master_port 45027
…
